models/03_pytorch_computer_vision_model_2.pth (torch, 35506 bytes, 10 tensors)

block_1.0.weight f4 [10, 1, 3, 3]
00000000: c42d b03e 5662 cb3e bf43 0fbf 370f 293e
00000010: d389 8a3e 1dc6 0b3d 76f8 cfbe 894d 0d3e
00000020: 019f 133e 803f e3be 8182 fc3e 7c4d 51bd
00000030: f041 1c3e 5e8f bf3e 3476 bd3d c34b d83d
00000040: a5ae af3e 7477 ba3b 30a7 a4be 73b7 d1bd
00000050: 4c91 30bd 59e4 13bf 1431 19bf 984d 803e
00000060: 0111 42bf 20f0 17bf 08c0 0abe 87c3 52bf
00000070: 3d69 88bf 7585 0fbf 0004 0b3e 9519 4dbf
00000080: 36c3 e23d aa2e 703e 17b3 bc3b f805 c23e
00000090: 040d 1abd 4a02 9e3e 130c 05bb aba6 1bbe
000000a0: 7199 463e dd3e d33a f0ab 983d f788 6d3e
000000b0: 4373 893e 93dd 16be 3578 423e 9af0 7d3d
000000c0: fd36 2e3e 7d57 50be 8371 a8be b73a 02be
000000d0: d06c 82be b600 883e 4bf6 cd3c e8ca ba3c
000000e0: 846e b3bd 2d08 c13d 4521 3b3e f6bd 4cbe
000000f0: 6cff 39bd daa8 07bf c892 f5bd 268d 31be
00000100: 7eca 2ebd d716 33be 5264 a23e 4e47 76be
00000110: 7706 75be 4507 5cbe c5e4 cb3e 53cf 863e
00000120: 57b8 fa3e d1f4 9dbe aa2b d9be 10cf 29be
00000130: 400c 7ebe c159 d03d b1f0 923e ffba 943e
00000140: 0073 39be 2858 68be 4eed 323e 5ed5 0abe
00000150: 6d5d 4e3e 3799 a3bd a880 423e b1ac 84be
00000160: 9575 2cbe 5021 cd3d
0.34409916 0.39723462 -0.5596275 0.1650971 0.27058277 0.034124482 -0.40619248 0.13799109
0.14416124 -0.44384384 0.49318317 -0.051099285 0.15259528 0.37414068 0.09251061 0.105613254
0.3431293 0.0056905095 -0.32158804 -0.10240068 -0.043107316 -0.57770306 -0.5984051 0.250592
-0.75807196 -0.59350777 -0.13549817 -0.823296 -1.0657116 -0.56063014 0.13575745 -0.8011716
0.1107239 0.23455301 0.005758654 0.3789518 -0.03761007 0.3086112 -0.0020301386 -0.15200298
0.19394471 0.0016116757 0.074546695 0.23196779 0.2684575 -0.14732961 0.18991168 0.061997034
0.17013164 -0.20345874 -0.32899103 -0.1271771 -0.25473642 0.26563042 0.025141856 0.022801831
-0.087613136 0.094253875 0.1827441 -0.1999434 -0.045409605 -0.5299202 -0.11990887 -0.17339
-0.04267358 -0.17489181 0.31717163 -0.24050638 -0.23928247 -0.21487148 0.39822975 0.2633005
0.48968765 -0.30850843 -0.42416126 -0.16582894 -0.2480936 0.10173369 0.28699258 0.29048917
-0.18110275 -0.22689879 0.17473337 -0.13557956 0.20152827 -0.07988208 0.18994391 -0.25913003
-0.16841729 0.100161195

block_1.0.bias f4 [10]
00000000: 0e35 a33d 4dd7 f53c ad0c 853e 2a79 023e
00000010: 249a 11bf 1a50 44be 40dc 0f3e 573c e6bd
00000020: 5bbf 9fbd 270f a6be
0.07969104 0.03000989 0.25986233 0.12741533 -0.56875825 -0.19171181 0.14048862 -0.11241978
-0.0780017 -0.32433435

block_1.2.weight f4 [10, 10, 3, 3]
00000000: 8e01 073e ca58 813d ee91 e4bc 36c7 c8bd
00000010: 4dff 2abe 3a31 4bbe e7f1 24bd 8fe5 39be
00000020: 871e 40be b79b f7bd 5538 c23a e660 d3bd
00000030: 43e5 69be 47c1 a6be 3c21 96be 3255 49be
00000040: a5a8 4cbe d3b4 91be f3dd b3bc 066f 253d
00000050: 45f5 fb3d b1e3 813d e01b 7f3e 2900 383e
00000060: de3f a4bd b0bc 8c3d 2567 043e 8306 29be
00000070: acd4 bdbc 4173 52be 2c3a 643d 1f9d dd3c
00000080: ea9c 00be 8bb5 143e b588 663d e8c1 0a3d
00000090: b5d5 d9bd 4072 f4bd f6ff 783c 64a3 2cbd
000000a0: 43f1 013d 4a8f cdbd fe0a a93d f975 91bd
000000b0: a70e 55bc 7cd8 b83c 0750 603d dbb0 ad3d
000000c0: c7a2 c53d 4d29 abbd c653 e53c cac1 37bd
000000d0: 7328 4fbc 9850 9ebd cc7a 433e ac90 6fbd
000000e0: c6dc 6f3c 8eec 023e 5894 723d a7ee 24bd
000000f0: 07fe c83d 6946 d6bb d891 e1bc caa8 b0bd
00000100: 6b17 413d 33f3 24bc ab58 50bd 0b8a bc3d
00000110: a0cc b13c ba50 3ebd 2c5e 7cbd 388a a7bc
00000120: 8697 ab3d 1e79 06bb c2db 34bd c84f 233c
00000130: f25c 9cbd 0fd2 6d3d cd6a dd3d 968d e9bd
00000140: 4170 fe3b ee0c 5f3d e686 9c3c 129c 19bd
00000150: 1058 613d f9e4 623d 0979 213d d8bc 97bc
00000160: 27a4 e4bc 2aa6 383c 9127 11bd bf91 463c
00000170: dac0 0f3e 0601 aa3d f426 dc3c a146 8a3c
00000180: fc3e 8abb b885 2cbd 0e41 5fbc ef17 433d
00000190: f08e 40bd 48e4 a4bb ff0b 993d 7df8 503d
000001a0: 6002 b0bb d7cf 26be ae64 febd aa40 02be
000001b0: 7ff2 11bd 99b1 b33c 8d0f 4e3d 6266 353d
000001c0: b48a d4bd f01f 88bd e515 a4bc 61c2 ee3d
000001d0: 1444 163d f887 8dbc a11a b93c 30bd 7dbd
000001e0: b3c9 87bd 35a5 963d d06d 79bd 062a 09bd
000001f0: 6379 f1bd 2208 9f3d 54a7 983d 0ac4 163d
00000200: 32c1 9cbd 37e8 02be 6b0e d7bd ac1d 903d
00000210: 2cec c03c e1aa 873d 4bfa 183d 1847 da3c
00000220: 0eb5 6bba 4d06 a4bd a706 b8bd e95b c9bd
00000230: c1d2 2f3d ce9a 53bd 3ec5 acbc a4a4 78bd
00000240: 8032 e8bc 5d90 7dbd 1f1a 84bd e947 943d
00000250: 325a 28bc 7a8e 9f3d 7a60 0b3c 3d60 8ebd
00000260: 5a71 a6bc fbfa 56bd f939 0fbd a7ea cfbd
00000270: 48d1 853d 8158 94bd 22cd 5c3d 5c70 403d
00000280: 4d90 a53d c156 a3bd 66aa a13d 6739 64bd
00000290: 80fc 1f3d de23 bc3d c638 c8bc cc30 29bb
000002a0: 2894 51bc 1639 b3bd c5fe 2f3d 9f4c d6bd
000002b0: b50c 863d d185 a13d 982e cc3d 15bf cbbc
000002c0: ee60 b1bd 491a c23c 2184 6e3d f9d2 d6bd
000002d0: 8adc c5bc c216 7fbd c322 a1bb 1929 4dbd
000002e0: 80f1 13bd 4f81 debc 7626 cdbd 7bf0 bb3d
000002f0: 3806 cd3d a4e1 86bc ddca 61bc e11d 27bd
00000300: 528b c4bd 34af cebd f4b3 503d 9272 72bd
00000310: 98ad 85bd 2301 6e3c 6e2c 1dbd 500d 23bd
00000320: 1934 39ba 1ff3 bebc b356 16bd c610 70bd
00000330: 0efa b1bd 45bc b93d 1bec 2dbd 8cd1 c23c
00000340: cd98 1bbd 01b3 483c e403 c13d b646 693d
00000350: 4f21 bdbd f7f0 143d 7a58 ce3d ee18 a33c
00000360: bcba 903d 06d4 d43d b810 9ebc 3e17 b33c
00000370: bcee 95bd 39d0 c7bc f52c 9e3d 98ee 5c3d
00000380: c6e5 81bd d619 adbd 2b8b 93bd 1213 d5bd
00000390: fa92 a6bd af52 d6bc a83d 923d 8ddc 8f3c
000003a0: 8cca a3bd d72b adbd bd60 463d 2b80 a6bd
000003b0: 9a1c a6bc 7713 473d b4eb 5abd 1503 88bc
000003c0: 4ebd 36bc 30ab f0bc 7dc3 63bd ed6f c0bd
000003d0: 83bd aebd 66fd 65bd 92f3 cf3d 94a6 4fbd
000003e0: bc65 8dbd 38e4 ba3c 9cea c93c 8ccf 583d
000003f0: 2188 a33d ae49 703d a52d d5bd a506 fe3b
0.13184187 0.06315763 -0.027901616 -0.098036215 -0.16698952 -0.19842997 -0.04026976 -0.18153976
-0.18761645 -0.12090247 0.0014817814 -0.10321216 -0.22841363 -0.32569334 -0.2932223 -0.19661406
-0.19986208 -0.2845827 -0.02195642 0.040389083 0.12302641 0.06342257 0.24912977 0.17968811
-0.08019994 0.06871927 0.12929972 -0.1650639 -0.023172699 -0.20551778 0.05571954 0.02705246
-0.12559858 0.14522378 0.056282718 0.03387633 -0.106364645 -0.11935854 0.015197745 -0.04214801
0.031724226 -0.10037096 0.0825405 -0.071025796 -0.013003982 0.022564165 0.05476382 0.08480998
0.09650188 -0.08357487 0.027994048 -0.044862546 -0.012643921 -0.07730216 0.19089812 -0.05848758
0.014640039 0.12785551 0.059223503 -0.04026666 0.09814077 -0.0065391553 -0.027535364 -0.08625944
0.047141474 -0.010067749 -0.05086581 0.09206017 0.021704018 -0.046463706 -0.061613247 -0.02045165
0.0837851 -0.0020518969 -0.04415489 0.009967752 -0.076349154 0.058061656 0.10811386 -0.114039585
0.0077648466 0.05445569 0.019107293 -0.037502356 0.055015624 0.055394147 0.03942207 -0.018522665
-0.027910305 0.011270085 -0.035438124 0.0121197095 0.14038411 0.083009765 0.026874043 0.016879382
-0.004218934 -0.04211971 -0.01362635 0.047630247 -0.047011316 -0.005032096 0.07472991 0.051018227
-0.005371377 -0.16290222 -0.12421547 -0.1271998 -0.035631653 0.021935271 0.0503078 0.044287093
-0.10378018 -0.066467166 -0.020029971 0.116581686 0.036686018 -0.017276749 0.022595705 -0.061948
-0.06630268 0.073557295 -0.06089574 -0.033487342 -0.11790731 0.07765223 0.0745379 0.03680805
-0.076540366 -0.12783895 -0.10500797 0.070369095 0.023550116 0.066243894 0.037348073 0.026645228
-0.0008991518 -0.08009014 -0.08985644 -0.098319836 0.0429256 -0.051661305 -0.021090146 -0.06070389
-0.028344393 -0.061905254 -0.06450295 0.07240278 -0.0102754105 0.07790847 0.0085068885 -0.0695195
-0.020317722 -0.052485447 -0.034967396 -0.10152178 0.06534058 -0.07243443 0.053906567 0.046982154
0.08084164 -0.07975531 0.07893829 -0.055718806 0.039059162 0.091865286 -0.024441134 -0.0025816439
-0.012791671 -0.08751123 0.042967577 -0.10463833 0.065453924 0.078868516 0.099698246 -0.024871388
-0.08661066 0.023694174 0.058231477 -0.104894586 -0.024153013 -0.062277563 -0.004917474 -0.050088022
-0.036118984 -0.027161269 -0.100171015 0.091767274 0.10010952 -0.016465016 -0.0137812765 -0.04079998
-0.09596886 -0.10092011 0.050952867 -0.059191294 -0.06527251 0.014526638 -0.03837245 -0.039807618
-0.0007064953 -0.023309289 -0.036703777 -0.058609746 -0.08690272 0.09069113 -0.042461496 0.02378156
-0.03798752 0.012249709 0.0942457 0.0569522 -0.09234869 0.036362614 0.10075469 0.019909348
0.07066867 0.10392003 -0.019295081 0.021861669 -0.073209256 -0.02439128 0.077234186 0.05393848
-0.06342654 -0.084521934 -0.072042786 -0.10404028 -0.08133502 -0.026162473 0.07140666 0.017561221
-0.07997617 -0.084556274 0.0484321 -0.08129915 -0.02027731 0.048602547 -0.05344744 -0.016603032
-0.011153532 -0.029378504 -0.055606354 -0.09396348 -0.0853224 -0.056149863 0.10153879 -0.05069597
-0.0690417 0.022813901 0.024648003 0.052932307 0.07984949 0.058664016 -0.10409097 0.007752257

block_1.2.bias f4 [10]
00000000: e32e d33e 3cd8 dbbb f009 67bd a025 e53e
00000010: 1249 b0bd b80b 3e3d 44da 2f3e e3f6 e33d
00000020: ea22 853e 6c71 9c3d
0.4124671 -0.0067091268 -0.05640596 0.44755268 -0.08607687 0.046397895 0.17173105 0.11131074
0.260032 0.07638821

block_2.0.weight f4 [10, 10, 3, 3]
00000000: 9d7b 52bc 63c9 00be e4c3 cebc 83ad 04bc
00000010: 5ee0 7b3c 9bce 273e 79be b3bd b6f9 a63d
00000020: c357 103e 3f3b 543d cef9 c5bd 6f06 2dbd
00000030: 24ae bebd 0190 87bd b7f7 6b3d 54c5 6fbc
00000040: 53d2 413d 1285 85bd 066a 893c 6cc7 82bd
00000050: 7525 593d 7a1a 37bd b9fb dabc dff0 b9bd
00000060: d749 8e3a 5585 cd3d 7874 513d 5080 79be
00000070: 9a16 8ebd ccea 41be 94a2 91bd 2fac e03d
00000080: bc0e afbd 8c89 403e 04ed 6bbc b6e3 ddbd
00000090: a3c4 e93c 36d3 273d 53c8 28bb 3bcb cb3b
000000a0: 98b6 d43d edb4 f7bc 4f16 213c 719e 7e3c
000000b0: 4ad6 f73d 8959 95bd 8dd0 06bd f048 9bbd
000000c0: bb49 27bd 90e4 9bbd 68da d1bd 08ff e03c
000000d0: e4e7 a83d ed3a 4e3d 1b9c a2be d0d8 ec3d
000000e0: 9411 51be 73c2 703d 22c7 513e 61fe dc3d
000000f0: 743d bd3e 9a71 2d3e db44 4c3c b61d 69bc
00000100: ab72 babb c571 b5bc 3245 b0bb 6b04 b13d
00000110: b06a b2bd 2d1a 673d 1755 8abd 46bf cbbc
00000120: 34b1 6ebe 39d8 d1bd f67b b0bd 2b9d ad3d
00000130: 11c6 1b3e dd79 703b ccab 933b 31af b5bd
00000140: e04c 5ab9 2229 c03d 38ef bfbd 5897 ef3c
00000150: 38ee 953d 71fa 1a3d ea36 9dbd e259 a03d
00000160: 3aa1 743d 94e3 b43c b4ed 59bb 5c1b 70be
00000170: 49a3 3abe 9e69 293e 4305 8abe 24bc 9fbb
00000180: 1386 a63d c611 123e 6ec5 883c 02b4 323d
00000190: 8bf3 07bd 80c4 9ebd 2348 c9bd 5243 c53d
000001a0: a19d be3a 02c9 533d f3d1 f0bc c789 b53d
000001b0: 4d9f 6b3d 0083 2d3d 1add 3fbd 86a4 b7bd
000001c0: 758f f33b 6b10 7bbd b86f af3d abba d1bd
000001d0: f013 3f3d 5496 73be 29bd da3e cfb1 083f
000001e0: e452 25be fb74 4a3f 51a4 d73e 9102 47bf
000001f0: 0022 68be 2723 dabd 7ea7 153e bca8 923e
00000200: ea32 0d3e cc3a 85bd 6cf7 0ebd c59b dd3c
00000210: f59c 44bd d416 2bbe bd6e 0cbc fe81 8abd
00000220: db11 8fbe e14d 09be f2f4 073e f308 3c3e
00000230: b337 a43c 38b6 c03d 83d2 3d3e 7b8f f73d
00000240: 5fa7 29bf 6c06 cbba 66d8 773e 9335 06bf
00000250: 7e2e c33e 8340 c53e 0059 b2be f077 003c
00000260: 5e31 70bd 7eab b5bd 969d 1abe 399e d93d
00000270: 1077 53be 041d 693e fc7a 06bd 5b9d 82be
00000280: 9450 d33d fb3c 4bbd 9d8b fdbe 5bde da3d
00000290: 27bc e83e cd7b ebbd 9090 d33e 6db4 963e
000002a0: 6bfd 84be 52b5 9fbc ee1e b3bd 8c43 923e
000002b0: bb1f 393d ec5c 77be d1eb 803e a332 823d
000002c0: 514c edbd 1379 6dbe 2442 2e3e e852 6c3e
000002d0: fb51 e0bc e741 aa3d 5c50 753d 524a 91bd
000002e0: 076c d7bd 5e01 f3bd 5ba6 89bd 7f13 44bd
000002f0: 06b4 28bd 9d40 dbbc 36ae 64bd 1bc7 0abd
00000300: c113 35bd b78a d43d 609a 07bd 74c7 9dbd
00000310: 8cec 273d 3d22 47bb 282c a53d 1dde 873d
00000320: 7fbc c73d fba2 9ebd 26bb 8c3d 40dc b63d
00000330: cd20 53bd 74ea c63d 1ac8 a13d 1320 59bd
00000340: 745e d73c 0297 7bbd 2ea5 06be 4a21 363d
00000350: 4019 8d3d ea09 dabd e1a7 d23c ddbe b6bd
00000360: 5120 973d 5857 c53d 59c3 f33c ce8a 9cbd
00000370: f295 7e3d 72fb 1c3d 8527 ca3b 2ea5 023d
00000380: 8ad9 a63d 6fef 81bd d2ed 52bd a139 893b
00000390: edd6 48bc 7f6f ae3d 1685 0cbd baf9 adbc
000003a0: be53 613b 1c2b b2bc be23 0f3d addd 1dba
000003b0: bd74 f1bd e96e 06bd f521 69bd 215b 833c
000003c0: 4e1c e4bc 99ec f7bd 6234 53bc 5bdb febc
000003d0: f0ea 0bbd 7d47 903d 17c8 e5bc da4f 993d
000003e0: c176 aa3c 77d5 c3bd 54d9 883c 3fde aa3d
000003f0: 1929 efbd a926 bdbd 6ef4 973d 33a6 573d
-0.0128468545 -0.12576823 -0.025239892 -0.008098009 0.0153733175 0.16387407 -0.08776564 0.08153097
0.14095978 0.051814314 -0.09666787 -0.042242464 -0.093105584 -0.066192634 0.057609286 -0.014634449
0.04731972 -0.06519522 0.016774189 -0.06385693 0.053014237 -0.044702984 -0.026731359 -0.09079146
0.0010855746 0.10035197 0.051136464 -0.24365354 -0.06937905 -0.18937224 -0.071110874 0.109703414
-0.08547732 0.1880247 -0.014399771 -0.10834448 0.028536147 0.04097291 -0.0025754168 0.0062192953
0.103863895 -0.03023764 0.009831979 0.015540705 0.12101419 -0.07292468 -0.032913733 -0.07582271
-0.0408418 -0.07611954 -0.10246736 0.027465358 0.082473546 0.050349165 -0.31759724 0.11564791
-0.20416862 0.05877919 0.2048612 0.107907064 0.36960948 0.16937867 0.012467588 -0.014228275
-0.005689939 -0.022148976 -0.0053793425 0.08643421 -0.08711755 0.056421448 -0.06754511 -0.02487148
-0.23309785 -0.10246319 -0.08617394 0.08477243 0.15212275 0.003669373 0.004506564 -0.08871306
-0.00020818738 0.093828455 -0.09371799 0.029246971 0.07320827 0.037836496 -0.0767649 0.07829644
0.05972407 0.022081174 -0.0033253254 -0.23447937 -0.18226351 0.16544196 -0.2695714 -0.004874723
0.081310414 0.14264593 0.016695704 0.0436287 -0.033191245 -0.07752323 -0.09828212 0.09631981
0.0014542827 0.051705368 -0.029396987 0.088641696 0.057524968 0.04236126 -0.04684172 -0.08966927
0.007432873 -0.061294954 0.085662305 -0.10240682 0.046649873 -0.23787814 0.42722443 0.53396314
-0.16144902 0.7908475 0.4211755 -0.7773829 -0.2266922 -0.10651236 0.14614674 0.2864436
0.13788953 -0.06505355 -0.03490393 0.027051816 -0.04800125 -0.16707927 -0.008571324 -0.06763075
-0.2794331 -0.13408615 0.13277033 0.18362789 0.02004609 0.094097555 0.18537335 0.120879136
-0.66271013 -0.0015489585 0.24203643 -0.524255 0.38121408 0.3852578 -0.34833527 0.007841095
-0.05864083 -0.088706 -0.15099177 0.10625882 -0.20650887 0.22764975 -0.03283213 -0.25510678
0.103181034 -0.049618702 -0.4952058 0.10686942 0.4545605 -0.114982225 0.4132123 0.2943453
-0.25974593 -0.01949564 -0.08746134 0.2856716 0.045196276 -0.2415654 0.25179914 0.063573144
-0.11586822 -0.23190717 0.17017418 0.23078501 -0.027382841 0.08313351 0.05989109 -0.070942536
-0.105186515 -0.11865495 -0.06721183 -0.047870155 -0.04118731 -0.026764208 -0.055830203 -0.033881288
-0.044208292 0.1037802 -0.033106208 -0.07704058 0.040997073 -0.0030385398 0.08065063 0.066341616
0.0975275 -0.0774593 0.06871633 0.08928728 -0.051544953 0.09712687 0.078994945 -0.053009104
0.026290156 -0.06142331 -0.13148949 0.04446534 0.06889582 -0.10646422 0.025714817 -0.08923123
0.07379211 0.096358 0.029756235 -0.076436624 0.062154718 0.038325734 0.006169262 0.03189581
0.08146961 -0.063444965 -0.051496334 0.004187778 -0.012258274 0.0851736 -0.03430661 -0.021237243
0.003438219 -0.021749072 0.034946196 -0.0006022107 -0.11789844 -0.032820616 -0.05691715 0.016034665
-0.027845528 -0.12105674 -0.012890907 -0.031110456 -0.0341596 0.07044885 -0.028049512 0.074859336
0.02080858 -0.095621996 0.016705193 0.08343171 -0.11677761 -0.092358895 0.07419668 0.052648734

block_2.0.bias f4 [10]
00000000: ae19 a3bd 4dc0 d43d e7b8 3abd e72a 36be
00000010: 8d23 78bb bce0 313d d1ac ba3e a7d9 e03e
00000020: 2e96 333f 6047 68bd
-0.079638824 0.10388241 -0.045586493 -0.17789803 -0.0037862987 0.043427214 0.36459973 0.43916056
0.7015103 -0.056708694

block_2.2.weight f4 [10, 10, 3, 3]
00000000: 5760 4bbe 3037 72be 34c0 29be 08e0 13bd
00000010: 92b3 4a3d 273e 7a3d af15 ad3d 955d c6bd
00000020: 4ec3 9e3c 6445 acbc b140 96be 1435 b6bc
00000030: af5c 50bd 0a27 653d 5321 a6be 6f3a 943e
00000040: 1d04 2d3e 029d 3cbf 8f13 ed3c 1d5f 1fbc
00000050: 261c bc3d 1011 d6bd 4836 6b3d 6e7b bf3c
00000060: b7e6 6d3c c273 693d ca6e ccbd 9efa 20be
00000070: ad76 5d3d 0e9e dcbd fe8e 20be 9ff6 08bc
00000080: 77d4 c6bd a774 babd bbd6 1f3d 5af3 00bd
00000090: 9e23 4dbd 437d ac3c 7f3d 3f3d 1a0e 50bc
000000a0: 8e88 bfbc bfae 8c3c 6e98 3ebd b6df 9fbd
000000b0: 056e 24be 08f2 0fbe ce46 0fbe bf24 ab3d
000000c0: 40c9 12bd e78a 4cbd aac1 623d 0985 9f3b
000000d0: 9a1d 90bd 6f4f f1bd 47f5 f3be 8085 d83b
000000e0: 59c7 60bf 1998 4cbe 7928 d43c 3679 793e
000000f0: e2bf a5be a681 ec3d 115a 1e3f f262 c13e
00000100: 9b8f e73d b607 9abe 18e8 bb3c 53d7 d4bd
00000110: 42b0 4bbb 9a70 0bbe d0e6 3dbe 2ecb 10bc
00000120: 566b c83e 6ead a5bd 0525 3b3e c391 2e3d
00000130: a144 c7be da6a 573e 70be 94be 1188 bbbe
00000140: 48c4 25be 5f73 5abd f7ec 443d 9b87 88bd
00000150: 9528 9b3c 801e b1bd e3b6 91bd c568 7c3d
00000160: 3d66 08bd fabc 68bd ccd5 e83c 33fc ba3d
00000170: 45fe fd3c e5d9 aabd 3696 3c3d 8c8f f0bc
00000180: ce87 1b3e 0f21 cbbc 94dd 353d a914 bbbd
00000190: 8ebd 163e 21ca 31bd 2169 013e c90f 1cbf
000001a0: 4b3c b03e 6fc3 fe3c 51b5 33bf 287a 503e
000001b0: d160 af3b 7ba8 33bd 7fa8 9a3d 2f42 6b3d
000001c0: f2bb fabd 1aaf 89bd 20fa 30bd dad3 efbd
000001d0: 2e04 67bd 0587 44bd 3295 eb3d e636 6d3d
000001e0: 853b 613e a813 9abd aeb8 f1bd 4c12 543e
000001f0: 4c40 30bd c9e9 373d d8fb 85bc d9b0 b13c
00000200: b7b2 653d fe33 43bb 8506 aabd 5dd7 3b3d
00000210: bcd8 613d d52e 8abd 7446 12be ae66 3cbc
00000220: ca01 6f3d b765 643d 373e cb3c d1d0 8cbd
00000230: 44fc a83d a57b 6d3e 2b21 973d dd65 053e
00000240: 5494 a7bd ca01 783e d688 673e 91a5 89be
00000250: dd34 d83d cebc d0bd 8164 f13d 4d36 853d
00000260: c658 c2bd c495 4bbd 44db 3abe 1d73 8c3d
00000270: 081c 00be bd2c 04bf 81bb 1dbe f28c 643d
00000280: 61be 02bf 34ad f33e 35e7 cdbd c24b 29be
00000290: 36af 13be 6d43 623d 2f79 783e 114a a7be
000002a0: 89f8 c73d df06 5e3e 7157 ccbd 4e33 f1bc
000002b0: 9c4c 543d 96f4 063e ea26 78bd dfbb aabd
000002c0: 7de6 803c d1da fdba 1c9f efbc 72f5 d5bd
000002d0: ac67 d93d a7e4 d53c 6bc6 b4bd a14c 3ebd
000002e0: 8c60 863d 57fa c5bd da90 5ebc 40e6 fb3d
000002f0: 7d67 acbd 6543 12bf d99e a8bd 36db 04bf
00000300: b1ca 00bf 244b 0f3f 5432 4dbe f78c a4be
00000310: 6c27 9b3d 6067 b43e 3a28 33bd ac31 28bd
00000320: 54ef 24bc eca3 d6bb 52f4 3e3d fc2c 933d
00000330: 3450 e3bc 68e4 71bd 6a28 8d3d bcd3 9abd
00000340: 7878 043d 14ba 22bd 0765 c13d ae1d 8a3b
00000350: 1a19 68be 05fe 9e3d 28c4 2cbd 3e61 c6bd
00000360: 7cfa c93d cb2f b6bd 91dc c6bd 5484 c9bc
00000370: dfd8 833d 9483 07be ccdb a53d 926b 0e3d
00000380: 265f 023c 6498 4a3e 5df0 cc3c dce7 56be
00000390: 0653 3c3e 8984 ed3b b795 ffbd 5c06 613d
000003a0: 62fb 5e3c ddba 03be f9f6 1dbf 48ca 3fbe
000003b0: b4e2 743e 21c6 0abf a75c fd3c 3fa7 1fbe
000003c0: 87a8 a3be e16a aa3e a428 54bd 6836 2cbd
000003d0: b5ea dd3e 7db5 26be 128d 96be 5c21 b13e
000003e0: 09ee 1a3d 7e00 a5bc cffe 9abe 6736 c23d
000003f0: ac8d 3bbc 2e7b 94be 93c7 c43d 30ff c9ba
-0.1986097 -0.23653865 -0.16577226 -0.036102325 0.049487658 0.06109443 0.084514014 -0.09685818
0.019380238 -0.021029182 -0.2934623 -0.022242106 -0.05086964 0.055945434 -0.324473 0.2895083
0.168961 -0.73677075 0.02893999 -0.009727267 0.091850564 -0.10452473 0.057424814 0.023374286
0.014520339 0.05699516 -0.09982069 -0.15720603 0.054068256 -0.10772334 -0.15679547 -0.00835958
-0.09708493 -0.09104281 0.039023142 -0.031482078 -0.050082795 0.021055823 0.046689507 -0.012698675
-0.023380544 0.01717317 -0.046532087 -0.07806341 -0.16057594 -0.14057171 -0.13991854 0.08356618
-0.03583646 -0.049937155 0.055360474 0.004868154 -0.07036896 -0.11782729 -0.4764807 0.0066077113
-0.8780418 -0.19979896 0.025898205 0.24362645 -0.32372957 0.11548166 0.6185618 0.37770802
0.113066874 -0.30084008 0.02293782 -0.10392632 -0.00310804 -0.13617173 -0.18545079 -0.008837504
0.3914439 -0.0808972 0.1827584 0.042619478 -0.38919547 0.21036854 -0.29051542 -0.36627248
-0.16188157 -0.053332683 0.04807755 -0.0666649 0.01894025 -0.086483955 -0.07114961 0.061623354
-0.033300627 -0.056820847 0.028422259 0.091301344 0.031005034 -0.08342341 0.04604169 -0.029365323
0.15188524 -0.024796037 0.044400766 -0.091348 0.14720747 -0.043405656 0.1263776 -0.60961586
0.34421 0.03109905 -0.7019854 0.20359099 0.0053521176 -0.043861847 0.07551669 0.057436164
-0.12242879 -0.06722851 -0.043207288 -0.11710329 -0.05640047 -0.047980327 0.11503066 0.057913683
0.21995361 -0.075232804 -0.11802803 0.20710105 -0.04303007 0.04490069 -0.01635544 0.021690773
0.05607864 -0.0029785628 -0.08302025 0.045859683 0.055138335 -0.06747214 -0.14284688 -0.01149909
0.058351316 0.055761065 0.02480994 -0.06875766 0.08251241 0.23191698 0.07379373 0.13027139
-0.08182588 0.24219432 0.22610793 -0.2688413 0.10556958 -0.10192262 0.11786748 0.06504498
-0.094895884 -0.049703375 -0.18247706 0.068578936 -0.12510693 -0.51630765 -0.15403558 0.05579848
-0.51071745 0.4759308 -0.10053865 -0.16532806 -0.14422306 0.055240083 0.24264978 -0.32673696
0.09764201 0.21682309 -0.099776156 -0.02944341 0.051830873 0.1317924 -0.060583986 -0.08336615
0.015734905 -0.001936758 -0.029250674 -0.104472056 0.10615477 0.026110006 -0.08826908 -0.046459798
0.065613836 -0.09666889 -0.01358434 0.12299776 -0.08418176 -0.57134086 -0.08233423 -0.5189699
-0.5030928 0.5597403 -0.2003873 -0.32138798 0.075758785 0.3523512 -0.043739535 -0.041062996
-0.010066826 -0.0065503027 0.04661972 0.071863145 -0.027748205 -0.059055716 0.06892474 -0.075599164
0.03234145 -0.03972824 0.094430976 0.004214964 -0.22665825 0.07763294 -0.042179257 -0.09686516
0.09862229 -0.088958345 -0.097100385 -0.024599232 0.06437849 -0.13233787 0.080985636 0.034770556
0.0079572555 0.19784695 0.025016958 -0.20986885 0.18391046 0.0072484654 -0.12479728 0.054937705
0.013609739 -0.12864251 -0.61704975 -0.18729508 0.23914605 -0.5420857 0.03092797 -0.15591143
-0.31964514 0.33284667 -0.05179657 -0.042044073 0.4334313 -0.1628017 -0.29404503 0.34595764
0.037824664 -0.020141836 -0.3027253 0.09483033 -0.011447351 -0.2900023 0.09608378 -0.0015411135

block_2.2.bias f4 [10]
00000000: 4cc4 e93d 4049 4dbe 9137 623e 538d e33d
00000010: 4eb7 dbbd 4f7b 653e 5bf6 673d 7931 74bd
00000020: b7b3 2ebc 71fb 2dbe
0.11414394 -0.20047474 0.2209151 0.1111094 -0.10728322 0.2241032 0.056631427 -0.059617493
-0.010662965 -0.16990449

classfier.1.weight f4 [10, 490]
00000000: 1735 c13c 70fd 75be 37ca 463e 6e92 4ebd
00000010: 882d 053e 7a70 4d3d 3328 873d d5eb 9d3d
00000020: 6f08 963e bfe2 e83b ba54 1abe e628 283e
00000030: 04f7 c2bc c710 8fbc c682 913d 27b6 e33d
00000040: 37dc 013e c29f 98bd 259a c1bd 364c b63d
00000050: dd64 66bd fc9f 323c 55e8 153e 498a 9f3d
00000060: a8ec 023c 03df 5c3d bd40 0d3e 048e 16bc
00000070: c34c 8dbd 3714 ba3d d446 06bd 2526 6fbd
00000080: 443e ba3d e41a a9bd e13e 873d 76d7 073d
00000090: 0aa3 67bd 70f4 b9bd e1fc 2ebe 4095 e5bd
000000a0: 32d8 0c3e afb2 72bd 51c4 023e 0d01 2abe
000000b0: f592 40be 6086 f63c 0eb2 77bd cf2b a53e
000000c0: 06e9 2dbd 670a 083e 32d7 ef3d 8c60 24be
000000d0: 8255 18be ebac 3e3d 4004 edbd d35f f13d
000000e0: fc0c c93d 7a76 93bd 6c41 3dbe f4f5 48bd
000000f0: 5ad1 5dbd e86c 00be 6618 c8b8 2bd2 82bd
00000100: 8c31 af3d 9053 9abd e675 0e3d 13be 97bc
00000110: 2575 7d3e e443 003e 9175 ed3c 235d 083e
00000120: adcf 90bc 966d 803b aa29 4e3c 39b8 4a3e
00000130: 4dd2 163c 2ccc ef3d 5c6a 033d e28c 47bd
00000140: db3c 97bd d5fe 463d 9b33 dc3c 3598 53bd
00000150: 57cf d3bd 60fa abbb 7740 fdbd 5c86 e4bd
00000160: a0d4 3f3c afe6 50bc 985d 00bc c58c 9dbd
00000170: cf42 acbd 2981 243e 1e1f 0fbe 20df 0abe
00000180: f4ba b43d a8e2 d9bb d9c4 503d 6d0b 763d
00000190: 7b10 f53d faf5 27bd 9cdc 0bb9 2f86 123e
000001a0: 9957 4f3c d194 1a3e c098 b13c 6bc3 4dbc
000001b0: 2d49 5a3d 65cb 073c a398 5e3d c408 20bd
000001c0: 02d5 ba3d ddd0 193e 27e2 6e3e 703b 8bbd
000001d0: d7ff a6bc 21f0 c8bd b78f 31be cbd0 2f3d
000001e0: afaf d8bd 21aa 433e c137 14be 3620 0bbe
000001f0: 10e0 fb3d 6637 2ebe 1094 3cbe b814 5bbd
00000200: 95dc c53d 1f00 96bd 3cbb 1dbe a95a a33d
00000210: 1fcb a63d 789b d1bd 39dd 8d3d b514 923d
00000220: 8f20 9abd 99f0 bdbd a555 2dbd e921 5c3d
00000230: e7d2 5c3c e869 873d 7d41 4c3d 694c fcbd
00000240: 6ba9 b6bd d612 26be d617 fabd c0d6 523e
00000250: 0732 59bd 57ea 77bc a3ce abbc 23f9 913d
00000260: 42ab 293d 64fa 5cbd ba1d ecbd fdfc 14be
00000270: 9fd9 bcbd d2dd 123a eef7 9b3c a6b6 26be
00000280: ac23 17be 0579 01be 4cdd 11bc a382 70bd
00000290: ed96 693d e650 2fbd 743b dabd bf22 1e3d
000002a0: 9b7b 583d e271 593d 9d49 7cbc 9288 0e3d
000002b0: 2857 6c3c ae9e 3d3c 7048 e23d 88ba 98bc
000002c0: 88d4 283e 985e 15bd 78b1 93bd c73b 61bd
000002d0: ad29 50bd 46b0 473e d310 eebd c5ef 6a3e
000002e0: 22f3 50bd 0797 cbbd 849d 6ebc 0bfe d6bc
000002f0: 2a82 2c3e cc4b d4bc 27ba 363d adfb 8dbd
00000300: 7d88 35bd e7f7 94bd 3455 50bd 1b4f e73d
00000310: 42a2 b83b b560 4a3b 4aeb 0fbd 5c8d 29bd
00000320: bb6d c03c ce06 ddbb 433b 323c 0f08 3b3a
00000330: a5cf 2abd 562a 4b3e 0623 ad3d d82d cf3d
00000340: e614 b5bd f67a 26bc 4353 8b3d 7816 163e
00000350: 234e af3c 5b58 e23d 6b71 0d3d fb9b 9d3e
00000360: 045f 2c3e 3c3b 413e 5147 c63d dc6f 2fbe
00000370: a75a 28bc b8ac 1abb 60f9 2c3e d19b 4b3d
00000380: 0fcd 8c3d 6b0d e0bd 384d c9bd 4367 6b3c
00000390: 1eeb babd a323 97bd c0a0 4cbd ef68 463c
000003a0: 07f4 aebd cc95 913c 7e7f dc3c 0c8c 893c
000003b0: 9473 bc3c 7962 7bbd 2920 7dbc d1b0 82bd
000003c0: 8fce 633c f3ac a0bc fcdc e8bd c6ee 12bd
000003d0: 6f95 9f3c b699 f5bc 8ff9 5c3d 553b e03d
000003e0: 072c 833c bef6 8f3d c437 9c3e ed03 bc3d
000003f0: 0303 37bc ce1c dabd b545 8c3d 84d4 c73d
0.023584886 -0.2402246 0.19413076 -0.050432615 0.1300565 0.050156094 0.06599464 0.07710997
0.2930331 0.0071071084 -0.15071383 0.16421852 -0.023799427 -0.017464055 0.07105021 0.11118727
0.12681662 -0.074523464 -0.09453229 0.08901255 -0.056248534 0.010902401 0.14639409 0.07790048
0.007990994 0.053923618 0.13794227 -0.009189133 -0.06899407 0.09085887 -0.03278239 -0.058385987
0.090939075 -0.08257082 0.0660379 0.033164464 -0.05655197 -0.09079826 -0.17088653 -0.11210108
0.13754347 -0.059252437 0.12770201 -0.16601963 -0.1880606 0.030093372 -0.06047254 0.32259986
-0.042458557 0.13285218 0.11710967 -0.16052455 -0.14876369 0.046551626 -0.11573076 0.11785855
0.0981693 -0.07200332 -0.18481988 -0.049062684 -0.05415473 -0.12541544 -9.541288e-05 -0.063877426
0.08554372 -0.075354695 0.034780405 -0.018523252 0.24751718 0.12525898 0.028986724 0.13316779
-0.017677153 0.0039193137 0.012583176 0.19796838 0.009205413 0.117088646 0.032083854 -0.04871834
-0.07384654 0.04858287 0.026880076 -0.051658828 -0.10342281 -0.005248353 -0.12365811 -0.111584395
0.011708409 -0.012750312 -0.0078348145 -0.07692865 -0.0841118 0.16064896 -0.13976714 -0.13561678
0.08824721 -0.006649334 0.05096898 0.06006949 0.11966034 -0.041006066 -0.00013338256 0.14309
0.012655162 0.15095831 0.021679282 -0.012558798 0.053292442 0.008288239 0.054344784 -0.03907086
0.09122659 0.15021081 0.23328458 -0.06798446 -0.020385666 -0.09811426 -0.17339979 0.04292373
-0.10580384 0.19107868 -0.14474393 -0.13586506 0.12298596 -0.1701332 -0.18415856 -0.053486556
0.09661213 -0.07324242 -0.15403455 0.079762764 0.08144211 -0.102347314 0.069269605 0.07132856
-0.07525741 -0.09274406 -0.042318005 0.053743277 0.013478017 0.06611997 0.049867142 -0.123192616
-0.08919033 -0.16218123 -0.122115776 0.20589733 -0.053026225 -0.015131555 -0.020972556 0.07127597
0.04142309 -0.05394973 -0.115291074 -0.14549632 -0.092211954 0.0005602512 0.01903912 -0.16280612
-0.14759701 -0.12643822 -0.008902859 -0.058718335 0.0570287 -0.04280176 -0.10655871 0.038607355
0.052852254 0.053087123 -0.01539841 0.034798212 0.014425077 0.011573477 0.110489726 -0.018643633
0.16487324 -0.036467165 -0.07211584 -0.05498865 -0.050820995 0.19500837 -0.11624303 0.22943027
-0.05101312 -0.099409156 -0.014563922 -0.026244184 0.16846529 -0.025915049 0.044611122 -0.06932769
-0.04431962 -0.07273846 -0.050862506 0.11294385 0.005634577 0.0030880396 -0.0351365 -0.041394576
0.023489824 -0.006745196 0.010878387 0.0007134685 -0.04170193 0.19840369 0.08453946 0.10116166
-0.08841877 -0.010161152 0.0680299 0.14657009 0.021399563 0.11052009 0.034531992 0.30783066
0.1683312 0.18870252 0.09681571 -0.17132515 -0.010275519 -0.0023601484 0.16892004 0.049709145
0.06875049 -0.10940059 -0.098291814 0.014367881 -0.09126876 -0.07379844 -0.04995799 0.012109979
-0.08542638 0.017771624 0.026916262 0.016790412 0.02300433 -0.061373208 -0.015449562 -0.06381381
0.013904228 -0.019613719 -0.113702744 -0.035872243 0.019480435 -0.029980522 0.053948935 0.10948817
0.016012205 0.07029484 0.30511296 0.09180436 -0.011170152 -0.10650025 0.06849233 0.09757331

classfier.1.bias f4 [10]
00000000: b788 3e3d 9466 1cbe c6dd e63e 7c17 0cbd
00000010: 1d74 cfbe a4eb 2fbe da8c 393e 9382 223c
00000020: ee41 353e 06c9 0dbe
0.0465171 -0.15273505 0.45091075 -0.034202084 -0.40518275 -0.17179734 0.18120137 0.009918827
0.17700931 -0.13846216
